…
      "Model: \"functional_21\"\n",
      "__________________________________________________________________________________________________\n",
      "Layer (type)                    Output Shape         Param #     Connected to                     \n",
      "==================================================================================================\n",
      "input_39 (InputLayer)           [(None, 96, 128, 3)] 0                                            \n",
      "__________________________________________________________________________________________________\n",
      "conv2d_415 (Conv2D)             (None, 96, 128, 32)  896         input_39[0][0]                   \n",
      "__________________________________________________________________________________________________\n",
      "conv2d_416 (Conv2D)             (None, 96, 128, 32)  9248        conv2d_415[0][0]                 \n",
      "__________________________________________________________________________________________________\n",
      "max_pooling2d_124 (MaxPooling2D (None, 48, 64, 32)   0           conv2d_416[0][0]                 \n",
      "__________________________________________________________________________________________________\n",
      "conv2d_417 (Conv2D)             (None, 48, 64, 64)   18496       max_pooling2d_124[0][0]          \n",
      "__________________________________________________________________________________________________\n",
      "conv2d_418 (Conv2D)             (None, 48, 64, 64)   36928       conv2d_417[0][0]                 \n",
      "__________________________________________________________________________________________________\n",
      "max_pooling2d_125 (MaxPooling2D (None, 24, 32, 64)   0           conv2d_418[0][0]                 \n",
      "__________________________________________________________________________________________________\n",
      "conv2d_419 (Conv2D)             (None, 24, 32, 128)  73856       max_pooling2d_125[0][0]          \n",
      "__________________________________________________________________________________________________\n",
      "conv2d_420 (Conv2D)             (None, 24, 32, 128)  147584      conv2d_419[0][0]                 \n",
      "__________________________________________________________________________________________________\n",
      "max_pooling2d_126 (MaxPooling2D (None, 12, 16, 128)  0           conv2d_420[0][0]                 \n",
      "__________________________________________________________________________________________________\n",
      "conv2d_421 (Conv2D)             (None, 12, 16, 256)  295168      max_pooling2d_126[0][0]          \n",
      "__________________________________________________________________________________________________\n",
      "conv2d_422 (Conv2D)             (None, 12, 16, 256)  590080      conv2d_421[0][0]                 \n",
      "__________________________________________________________________________________________________\n",
      "dropout_56 (Dropout)            (None, 12, 16, 256)  0           conv2d_422[0][0]                 \n",
      "__________________________________________________________________________________________________\n",
      "max_pooling2d_127 (MaxPooling2D (None, 6, 8, 256)    0           dropout_56[0][0]                 \n",
      "__________________________________________________________________________________________________\n",
      "conv2d_423 (Conv2D)             (None, 6, 8, 512)    1180160     max_pooling2d_127[0][0]          \n",
      "__________________________________________________________________________________________________\n",
      "conv2d_424 (Conv2D)             (None, 6, 8, 512)    2359808     conv2d_423[0][0]                 \n",
      "__________________________________________________________________________________________________\n",
      "dropout_57 (Dropout)            (None, 6, 8, 512)    0           conv2d_424[0][0]                 \n",
      "__________________________________________________________________________________________________\n",
      "conv2d_transpose_66 (Conv2DTran (None, 12, 16, 256)  1179904     dropout_57[0][0]                 \n",
      "__________________________________________________________________________________________________\n",
      "concatenate_49 (Concatenate)    (None, 12, 16, 512)  0           conv2d_transpose_66[0][0]        \n",
      "                                                                 dropout_56[0][0]                 \n",
      "__________________________________________________________________________________________________\n",
      "conv2d_425 (Conv2D)             (None, 12, 16, 256)  1179904     concatenate_49[0][0]             \n",
      "__________________________________________________________________________________________________\n",
      "conv2d_426 (Conv2D)             (None, 12, 16, 256)  590080      conv2d_425[0][0]                 \n",
      "__________________________________________________________________________________________________\n",
      "conv2d_transpose_67 (Conv2DTran (None, 24, 32, 128)  295040      conv2d_426[0][0]                 \n",
      "__________________________________________________________________________________________________\n",
      "concatenate_50 (Concatenate)    (None, 24, 32, 256)  0           conv2d_transpose_67[0][0]        \n",
      "                                                                 conv2d_420[0][0]                 \n",
      "__________________________________________________________________________________________________\n",
      "conv2d_427 (Conv2D)             (None, 24, 32, 128)  295040      concatenate_50[0][0]             \n",
      "__________________________________________________________________________________________________\n",
      "conv2d_428 (Conv2D)             (None, 24, 32, 128)  147584      conv2d_427[0][0]                 \n",
      "__________________________________________________________________________________________________\n",
      "conv2d_transpose_68 (Conv2DTran (None, 48, 64, 64)   73792       conv2d_428[0][0]                 \n",
      "__________________________________________________________________________________________________\n",
      "concatenate_51 (Concatenate)    (None, 48, 64, 128)  0           conv2d_transpose_68[0][0]        \n",
      "                                                                 conv2d_418[0][0]                 \n",
      "__________________________________________________________________________________________________\n",
      "conv2d_429 (Conv2D)             (None, 48, 64, 64)   73792       concatenate_51[0][0]             \n",
      "__________________________________________________________________________________________________\n",
      "conv2d_430 (Conv2D)             (None, 48, 64, 64)   36928       conv2d_429[0][0]                 \n",
      "__________________________________________________________________________________________________\n",
      "conv2d_transpose_69 (Conv2DTran (None, 96, 128, 32)  18464       conv2d_430[0][0]                 \n",
      "__________________________________________________________________________________________________\n",
      "concatenate_52 (Concatenate)    (None, 96, 128, 64)  0           conv2d_transpose_69[0][0]        \n",
      "                                                                 conv2d_416[0][0]                 \n",
      "__________________________________________________________________________________________________\n",
      "conv2d_431 (Conv2D)             (None, 96, 128, 32)  18464       concatenate_52[0][0]             \n",
      "__________________________________________________________________________________________________\n",
      "conv2d_432 (Conv2D)             (None, 96, 128, 32)  9248        conv2d_431[0][0]                 \n",
      "__________________________________________________________________________________________________\n",
      "conv2d_433 (Conv2D)             (None, 96, 128, 32)  9248        conv2d_432[0][0]                 \n",
      "__________________________________________________________________________________________________\n",
      "conv2d_434 (Conv2D)             (None, 96, 128, 23)  759         conv2d_433[0][0]                 \n",
      "==================================================================================================\n",
      "Total params: 8,640,471\n",
      "Trainable params: 8,640,471\n",
      "Non-trainable params: 0\n",
      "__________________________________________________________________________________________________\n"
     ]
    }
   ],
   "source": [
…
